…
The value is the same before and after calling `init_weights` of EncoderDecoder  

decode_head.align.conv.weight - torch.Size([256, 256, 1, 1]): 
Initialized by user-defined `init_weights` in ConvModule  

decode_head.align.gn.weight - torch.Size([256]): 
The value is the same before and after calling `init_weights` of EncoderDecoder  

decode_head.align.gn.bias - torch.Size([256]): 
The value is the same before and after calling `init_weights` of EncoderDecoder  
2023-02-16 23:07:15,882 - mmseg - INFO - EncoderDecoder(
  (backbone): afformer_base(
    (stem): Sequential(
      (0): Conv2d_BN(
        (conv): Conv2d(3, 16, kernel_size=(3, 3), stride=(2, 2), padding=(1, 1), bias=False)
        (bn): BatchNorm2d(16, eps=1e-05, momentum=0.1, affine=True, track_running_stats=True)
        (act_layer): Hardswish()
      )
      (1): Conv2d_BN(
        (conv): Conv2d(16, 32, kernel_size=(3, 3), stride=(2, 2), padding=(1, 1), bias=False)
        (bn): BatchNorm2d(32, eps=1e-05, momentum=0.1, affine=True, track_running_stats=True)
        (act_layer): Hardswish()
      )
    )
    (patch_embed_stages): ModuleList(
      (0): Patch_Embed_stage(
        (patch_embeds): ModuleList(
          (0): DWCPatchEmbed(
            (patch_conv): DWConv2d_BN(
              (dwconv): Conv2d(32, 32, kernel_size=(3, 3), stride=(1, 1), padding=(1, 1), groups=32, bias=False)
              (pwconv): Conv2d(32, 32, kernel_size=(1, 1), stride=(1, 1), bias=False)
              (bn): BatchNorm2d(32, eps=1e-05, momentum=0.1, affine=True, track_running_stats=True)
              (act): Hardswish()
            )
          )
          (1): DWCPatchEmbed(
            (patch_conv): DWConv2d_BN(
              (dwconv): Conv2d(32, 32, kernel_size=(3, 3), stride=(1, 1), padding=(1, 1), groups=32, bias=False)
              (pwconv): Conv2d(32, 32, kernel_size=(1, 1), stride=(1, 1), bias=False)
              (bn): BatchNorm2d(32, eps=1e-05, momentum=0.1, affine=True, track_running_stats=True)
              (act): Hardswish()
            )
          )
        )
      )
      (1): Patch_Embed_stage(
        (patch_embeds): ModuleList(
          (0): DWCPatchEmbed(
            (patch_conv): DWConv2d_BN(
              (dwconv): Conv2d(96, 96, kernel_size=(3, 3), stride=(2, 2), padding=(1, 1), groups=96, bias=False)
              (pwconv): Conv2d(96, 96, kernel_size=(1, 1), stride=(1, 1), bias=False)
              (bn): BatchNorm2d(96, eps=1e-05, momentum=0.1, affine=True, track_running_stats=True)
              (act): Hardswish()
            )
          )
          (1): DWCPatchEmbed(
            (patch_conv): DWConv2d_BN(
              (dwconv): Conv2d(96, 96, kernel_size=(3, 3), stride=(1, 1), padding=(1, 1), groups=96, bias=False)
              (pwconv): Conv2d(96, 96, kernel_size=(1, 1), stride=(1, 1), bias=False)
              (bn): BatchNorm2d(96, eps=1e-05, momentum=0.1, affine=True, track_running_stats=True)
              (act): Hardswish()
            )
          )
        )
      )
      (2): Patch_Embed_stage(
        (patch_embeds): ModuleList(
          (0): DWCPatchEmbed(
            (patch_conv): DWConv2d_BN(
              (dwconv): Conv2d(176, 176, kernel_size=(3, 3), stride=(1, 1), padding=(1, 1), groups=176, bias=False)
              (pwconv): Conv2d(176, 176, kernel_size=(1, 1), stride=(1, 1), bias=False)
              (bn): BatchNorm2d(176, eps=1e-05, momentum=0.1, affine=True, track_running_stats=True)
              (act): Hardswish()
            )
          )
          (1): DWCPatchEmbed(
            (patch_conv): DWConv2d_BN(
              (dwconv): Conv2d(176, 176, kernel_size=(3, 3), stride=(2, 2), padding=(1, 1), groups=176, bias=False)
              (pwconv): Conv2d(176, 176, kernel_size=(1, 1), stride=(1, 1), bias=False)
              (bn): BatchNorm2d(176, eps=1e-05, momentum=0.1, affine=True, track_running_stats=True)
              (act): Hardswish()
            )
          )
        )
      )
      (3): Patch_Embed_stage(
        (patch_embeds): ModuleList(
          (0): DWCPatchEmbed(
            (patch_conv): DWConv2d_BN(
              (dwconv): Conv2d(216, 216, kernel_size=(3, 3), stride=(1, 1), padding=(1, 1), groups=216, bias=False)
              (pwconv): Conv2d(216, 216, kernel_size=(1, 1), stride=(1, 1), bias=False)
              (bn): BatchNorm2d(216, eps=1e-05, momentum=0.1, affine=True, track_running_stats=True)
              (act): Hardswish()
            )
          )
          (1): DWCPatchEmbed(
            (patch_conv): DWConv2d_BN(
              (dwconv): Conv2d(216, 216, kernel_size=(3, 3), stride=(4, 4), padding=(1, 1), groups=216, bias=False)
              (pwconv): Conv2d(216, 216, kernel_size=(1, 1), stride=(1, 1), bias=False)
              (bn): BatchNorm2d(216, eps=1e-05, momentum=0.1, affine=True, track_running_stats=True)
              (act): Hardswish()
            )
          )
        )
      )
    )
    (mhca_stages): ModuleList(
      (0): MHCA_stage(
        (Restore): Restore(
          (conv1): Conv2d_BN(
            (conv): Conv2d(32, 16, kernel_size=(1, 1), stride=(1, 1), bias=False)
            (bn): BatchNorm2d(16, eps=1e-05, momentum=0.1, affine=True, track_running_stats=True)
            (act_layer): Hardswish()
          )
          (dwconv): Conv2d(16, 16, kernel_size=(3, 3), stride=(1, 1), padding=(1, 1), groups=16, bias=False)
          (norm): BatchNorm2d(16, eps=1e-05, momentum=0.1, affine=True, track_running_stats=True)
          (act): Hardswish()
          (conv2): Conv2d_BN(
            (conv): Conv2d(16, 32, kernel_size=(1, 1), stride=(1, 1), bias=False)
            (bn): BatchNorm2d(32, eps=1e-05, momentum=0.1, affine=True, track_running_stats=True)
            (act_layer): Identity()
          )
        )
        (aggregate): Conv2d_BN(
          (conv): Conv2d(32, 96, kernel_size=(1, 1), stride=(1, 1), bias=False)
          (bn): BatchNorm2d(96, eps=1e-05, momentum=0.1, affine=True, track_running_stats=True)
          (act_layer): Hardswish()
        )
      )
      (1): MHCA_stage(
        (Restore): Restore(
          (conv1): Conv2d_BN(
            (conv): Conv2d(96, 48, kernel_size=(1, 1), stride=(1, 1), bias=False)
            (bn): BatchNorm2d(48, eps=1e-05, momentum=0.1, affine=True, track_running_stats=True)
            (act_layer): Hardswish()
          )
          (dwconv): Conv2d(48, 48, kernel_size=(3, 3), stride=(1, 1), padding=(1, 1), groups=48, bias=False)
          (norm): BatchNorm2d(48, eps=1e-05, momentum=0.1, affine=True, track_running_stats=True)
          (act): Hardswish()
          (conv2): Conv2d_BN(
            (conv): Conv2d(48, 96, kernel_size=(1, 1), stride=(1, 1), bias=False)
            (bn): BatchNorm2d(96, eps=1e-05, momentum=0.1, affine=True, track_running_stats=True)
            (act_layer): Identity()
          )
        )
        (aggregate): Conv2d_BN(
          (conv): Conv2d(96, 176, kernel_size=(1, 1), stride=(1, 1), bias=False)
          (bn): BatchNorm2d(176, eps=1e-05, momentum=0.1, affine=True, track_running_stats=True)
          (act_layer): Hardswish()
        )
        (mhca_blks): ModuleList(
          (0): MHCAEncoder(
            (cpe): ConvPosEnc(
              (proj): Conv2d(96, 96, kernel_size=(3, 3), stride=(1, 1), padding=(1, 1), groups=96)
            )
            (crpe): FilterModule(
              (conv_list): ModuleList(
                (0): Conv2d(24, 24, kernel_size=(3, 3), stride=(1, 1), padding=(1, 1), groups=24)
                (1): Conv2d(36, 36, kernel_size=(5, 5), stride=(1, 1), padding=(2, 2), groups=36)
                (2): Conv2d(36, 36, kernel_size=(7, 7), stride=(1, 1), padding=(3, 3), groups=36)
              )
              (LP): LowPassModule(
                (stages): ModuleList(
                  (0): Sequential(
                    (0): AdaptiveAvgPool2d(output_size=(1, 1))
                  )
                  (1): Sequential(
                    (0): AdaptiveAvgPool2d(output_size=(2, 2))
                  )
                  (2): Sequential(
                    (0): AdaptiveAvgPool2d(output_size=(3, 3))
                  )
                  (3): Sequential(
                    (0): AdaptiveAvgPool2d(output_size=(6, 6))
                  )
                )
                (relu): ReLU()
              )
            )
            (MHCA_layers): ModuleList(
              (0): MHCABlock(
                (cpe): ConvPosEnc(
                  (proj): Conv2d(96, 96, kernel_size=(3, 3), stride=(1, 1), padding=(1, 1), groups=96)
                )
                (crpe): FilterModule(
                  (conv_list): ModuleList(
                    (0): Conv2d(24, 24, kernel_size=(3, 3), stride=(1, 1), padding=(1, 1), groups=24)
                    (1): Conv2d(36, 36, kernel_size=(5, 5), stride=(1, 1), padding=(2, 2), groups=36)
                    (2): Conv2d(36, 36, kernel_size=(7, 7), stride=(1, 1), padding=(3, 3), groups=36)
                  )
                  (LP): LowPassModule(
                    (stages): ModuleList(
                      (0): Sequential(
                        (0): AdaptiveAvgPool2d(output_size=(1, 1))
                      )
                      (1): Sequential(
                        (0): AdaptiveAvgPool2d(output_size=(2, 2))
                      )
                      (2): Sequential(
                        (0): AdaptiveAvgPool2d(output_size=(3, 3))
                      )
                      (3): Sequential(
                        (0): AdaptiveAvgPool2d(output_size=(6, 6))
                      )
                    )
                    (relu): ReLU()
                  )
                )
                (factoratt_crpe): Frequency_FilterModule(
                  (qkv): Linear(in_features=96, out_features=288, bias=True)
                  (attn_drop): Dropout(p=0.0, inplace=False)
                  (proj): Linear(in_features=96, out_features=96, bias=True)
                  (proj_drop): Dropout(p=0.0, inplace=False)
                  (crpe): FilterModule(
                    (conv_list): ModuleList(
                      (0): Conv2d(24, 24, kernel_size=(3, 3), stride=(1, 1), padding=(1, 1), groups=24)
                      (1): Conv2d(36, 36, kernel_size=(5, 5), stride=(1, 1), padding=(2, 2), groups=36)
                      (2): Conv2d(36, 36, kernel_size=(7, 7), stride=(1, 1), padding=(3, 3), groups=36)
                    )
                    (LP): LowPassModule(
                      (stages): ModuleList(
                        (0): Sequential(
                          (0): AdaptiveAvgPool2d(output_size=(1, 1))
                        )
                        (1): Sequential(
                          (0): AdaptiveAvgPool2d(output_size=(2, 2))
                        )
                        (2): Sequential(
                          (0): AdaptiveAvgPool2d(output_size=(3, 3))
                        )
                        (3): Sequential(
                          (0): AdaptiveAvgPool2d(output_size=(6, 6))
                        )
                      )
                      (relu): ReLU()
                    )
                  )
                )
                (mlp): Mlp(
                  (fc1): Linear(in_features=96, out_features=192, bias=True)
                  (dwconv): DWConv(
                    (dwconv): Conv2d(192, 192, kernel_size=(3, 3), stride=(1, 1), padding=(1, 1), groups=192)
                  )
                  (act): GELU()
                  (fc2): Linear(in_features=192, out_features=96, bias=True)
                  (drop): Dropout(p=0.0, inplace=False)
                )
                (drop_path): Identity()
                (norm1): LayerNorm((96,), eps=1e-06, elementwise_affine=True)
                (norm2): LayerNorm((96,), eps=1e-06, elementwise_affine=True)
              )
              (1): MHCABlock(
                (cpe): ConvPosEnc(
                  (proj): Conv2d(96, 96, kernel_size=(3, 3), stride=(1, 1), padding=(1, 1), groups=96)
                )
                (crpe): FilterModule(
                  (conv_list): ModuleList(
                    (0): Conv2d(24, 24, kernel_size=(3, 3), stride=(1, 1), padding=(1, 1), groups=24)
                    (1): Conv2d(36, 36, kernel_size=(5, 5), stride=(1, 1), padding=(2, 2), groups=36)
                    (2): Conv2d(36, 36, kernel_size=(7, 7), stride=(1, 1), padding=(3, 3), groups=36)
                  )
                  (LP): LowPassModule(
                    (stages): ModuleList(
                      (0): Sequential(
                        (0): AdaptiveAvgPool2d(output_size=(1, 1))
                      )
                      (1): Sequential(
                        (0): AdaptiveAvgPool2d(output_size=(2, 2))
                      )
                      (2): Sequential(
                        (0): AdaptiveAvgPool2d(output_size=(3, 3))
                      )
                      (3): Sequential(
                        (0): AdaptiveAvgPool2d(output_size=(6, 6))
                      )
                    )
                    (relu): ReLU()
                  )
                )
                (factoratt_crpe): Frequency_FilterModule(
                  (qkv): Linear(in_features=96, out_features=288, bias=True)
                  (attn_drop): Dropout(p=0.0, inplace=False)
                  (proj): Linear(in_features=96, out_features=96, bias=True)
                  (proj_drop): Dropout(p=0.0, inplace=False)
                  (crpe): FilterModule(
                    (conv_list): ModuleList(
                      (0): Conv2d(24, 24, kernel_size=(3, 3), stride=(1, 1), padding=(1, 1), groups=24)
                      (1): Conv2d(36, 36, kernel_size=(5, 5), stride=(1, 1), padding=(2, 2), groups=36)
                      (2): Conv2d(36, 36, kernel_size=(7, 7), stride=(1, 1), padding=(3, 3), groups=36)
                    )
                    (LP): LowPassModule(
                      (stages): ModuleList(
                        (0): Sequential(
                          (0): AdaptiveAvgPool2d(output_size=(1, 1))
                        )
                        (1): Sequential(
                          (0): AdaptiveAvgPool2d(output_size=(2, 2))
                        )
                        (2): Sequential(
                          (0): AdaptiveAvgPool2d(output_size=(3, 3))
                        )
                        (3): Sequential(
                          (0): AdaptiveAvgPool2d(output_size=(6, 6))
                        )
                      )
                      (relu): ReLU()
                    )
                  )
                )
                (mlp): Mlp(
                  (fc1): Linear(in_features=96, out_features=192, bias=True)
                  (dwconv): DWConv(
                    (dwconv): Conv2d(192, 192, kernel_size=(3, 3), stride=(1, 1), padding=(1, 1), groups=192)
                  )
                  (act): GELU()
                  (fc2): Linear(in_features=192, out_features=96, bias=True)
                  (drop): Dropout(p=0.0, inplace=False)
                )
                (drop_path): Identity()
                (norm1): LayerNorm((96,), eps=1e-06, elementwise_affine=True)
                (norm2): LayerNorm((96,), eps=1e-06, elementwise_affine=True)
              )
            )
          )
        )
      )
      (2): MHCA_stage(
        (Restore): Restore(
          (conv1): Conv2d_BN(
            (conv): Conv2d(176, 88, kernel_size=(1, 1), stride=(1, 1), bias=False)
            (bn): BatchNorm2d(88, eps=1e-05, momentum=0.1, affine=True, track_running_stats=True)
            (act_layer): Hardswish()
          )
          (dwconv): Conv2d(88, 88, kernel_size=(3, 3), stride=(1, 1), padding=(1, 1), groups=88, bias=False)
          (norm): BatchNorm2d(88, eps=1e-05, momentum=0.1, affine=True, track_running_stats=True)
          (act): Hardswish()
          (conv2): Conv2d_BN(
            (conv): Conv2d(88, 176, kernel_size=(1, 1), stride=(1, 1), bias=False)
            (bn): BatchNorm2d(176, eps=1e-05, momentum=0.1, affine=True, track_running_stats=True)
            (act_layer): Identity()
          )
        )
        (aggregate): Conv2d_BN(
          (conv): Conv2d(176, 216, kernel_size=(1, 1), stride=(1, 1), bias=False)
          (bn): BatchNorm2d(216, eps=1e-05, momentum=0.1, affine=True, track_running_stats=True)
          (act_layer): Hardswish()
        )
        (mhca_blks): ModuleList(
          (0): MHCAEncoder(
            (cpe): ConvPosEnc(
              (proj): Conv2d(176, 176, kernel_size=(3, 3), stride=(1, 1), padding=(1, 1), groups=176)
            )
            (crpe): FilterModule(
              (conv_list): ModuleList(
                (0): Conv2d(44, 44, kernel_size=(3, 3), stride=(1, 1), padding=(1, 1), groups=44)
                (1): Conv2d(66, 66, kernel_size=(5, 5), stride=(1, 1), padding=(2, 2), groups=66)
                (2): Conv2d(66, 66, kernel_size=(7, 7), stride=(1, 1), padding=(3, 3), groups=66)
              )
              (LP): LowPassModule(
                (stages): ModuleList(
                  (0): Sequential(
                    (0): AdaptiveAvgPool2d(output_size=(1, 1))
                  )
                  (1): Sequential(
                    (0): AdaptiveAvgPool2d(output_size=(2, 2))
                  )
                  (2): Sequential(
                    (0): AdaptiveAvgPool2d(output_size=(3, 3))
                  )
                  (3): Sequential(
                    (0): AdaptiveAvgPool2d(output_size=(6, 6))
                  )
                )
                (relu): ReLU()
              )
            )
            (MHCA_layers): ModuleList(
              (0): MHCABlock(
                (cpe): ConvPosEnc(
                  (proj): Conv2d(176, 176, kernel_size=(3, 3), stride=(1, 1), padding=(1, 1), groups=176)
                )
                (crpe): FilterModule(
                  (conv_list): ModuleList(
                    (0): Conv2d(44, 44, kernel_size=(3, 3), stride=(1, 1), padding=(1, 1), groups=44)
                    (1): Conv2d(66, 66, kernel_size=(5, 5), stride=(1, 1), padding=(2, 2), groups=66)
                    (2): Conv2d(66, 66, kernel_size=(7, 7), stride=(1, 1), padding=(3, 3), groups=66)
                  )
                  (LP): LowPassModule(
                    (stages): ModuleList(
                      (0): Sequential(
                        (0): AdaptiveAvgPool2d(output_size=(1, 1))
                      )
                      (1): Sequential(
                        (0): AdaptiveAvgPool2d(output_size=(2, 2))
                      )
                      (2): Sequential(
                        (0): AdaptiveAvgPool2d(output_size=(3, 3))
                      )
                      (3): Sequential(
                        (0): AdaptiveAvgPool2d(output_size=(6, 6))
                      )
                    )
                    (relu): ReLU()
                  )
                )
                (factoratt_crpe): Frequency_FilterModule(
                  (qkv): Linear(in_features=176, out_features=528, bias=True)
                  (attn_drop): Dropout(p=0.0, inplace=False)
                  (proj): Linear(in_features=176, out_features=176, bias=True)
                  (proj_drop): Dropout(p=0.0, inplace=False)
                  (crpe): FilterModule(
                    (conv_list): ModuleList(
                      (0): Conv2d(44, 44, kernel_size=(3, 3), stride=(1, 1), padding=(1, 1), groups=44)
                      (1): Conv2d(66, 66, kernel_size=(5, 5), stride=(1, 1), padding=(2, 2), groups=66)
                      (2): Conv2d(66, 66, kernel_size=(7, 7), stride=(1, 1), padding=(3, 3), groups=66)
                    )
                    (LP): LowPassModule(
                      (stages): ModuleList(
                        (0): Sequential(
                          (0): AdaptiveAvgPool2d(output_size=(1, 1))
                        )
                        (1): Sequential(
                          (0): AdaptiveAvgPool2d(output_size=(2, 2))
                        )
                        (2): Sequential(
                          (0): AdaptiveAvgPool2d(output_size=(3, 3))
                        )
                        (3): Sequential(
                          (0): AdaptiveAvgPool2d(output_size=(6, 6))
                        )
                      )
                      (relu): ReLU()
                    )
                  )
                )
                (mlp): Mlp(
                  (fc1): Linear(in_features=176, out_features=352, bias=True)
                  (dwconv): DWConv(
                    (dwconv): Conv2d(352, 352, kernel_size=(3, 3), stride=(1, 1), padding=(1, 1), groups=352)
                  )
                  (act): GELU()
                  (fc2): Linear(in_features=352, out_features=176, bias=True)
                  (drop): Dropout(p=0.0, inplace=False)
                )
                (drop_path): Identity()
                (norm1): LayerNorm((176,), eps=1e-06, elementwise_affine=True)
                (norm2): LayerNorm((176,), eps=1e-06, elementwise_affine=True)
              )
              (1): MHCABlock(
                (cpe): ConvPosEnc(
                  (proj): Conv2d(176, 176, kernel_size=(3, 3), stride=(1, 1), padding=(1, 1), groups=176)
                )
                (crpe): FilterModule(
                  (conv_list): ModuleList(
                    (0): Conv2d(44, 44, kernel_size=(3, 3), stride=(1, 1), padding=(1, 1), groups=44)
                    (1): Conv2d(66, 66, kernel_size=(5, 5), stride=(1, 1), padding=(2, 2), groups=66)
                    (2): Conv2d(66, 66, kernel_size=(7, 7), stride=(1, 1), padding=(3, 3), groups=66)
                  )
                  (LP): LowPassModule(
                    (stages): ModuleList(
                      (0): Sequential(
                        (0): AdaptiveAvgPool2d(output_size=(1, 1))
                      )
                      (1): Sequential(
                        (0): AdaptiveAvgPool2d(output_size=(2, 2))
                      )
                      (2): Sequential(
                        (0): AdaptiveAvgPool2d(output_size=(3, 3))
                      )
                      (3): Sequential(
                        (0): AdaptiveAvgPool2d(output_size=(6, 6))
                      )
                    )
                    (relu): ReLU()
                  )
                )
                (factoratt_crpe): Frequency_FilterModule(
                  (qkv): Linear(in_features=176, out_features=528, bias=True)
                  (attn_drop): Dropout(p=0.0, inplace=False)
                  (proj): Linear(in_features=176, out_features=176, bias=True)
                  (proj_drop): Dropout(p=0.0, inplace=False)
                  (crpe): FilterModule(
                    (conv_list): ModuleList(
                      (0): Conv2d(44, 44, kernel_size=(3, 3), stride=(1, 1), padding=(1, 1), groups=44)
                      (1): Conv2d(66, 66, kernel_size=(5, 5), stride=(1, 1), padding=(2, 2), groups=66)
                      (2): Conv2d(66, 66, kernel_size=(7, 7), stride=(1, 1), padding=(3, 3), groups=66)
                    )
                    (LP): LowPassModule(
                      (stages): ModuleList(
                        (0): Sequential(
                          (0): AdaptiveAvgPool2d(output_size=(1, 1))
                        )
                        (1): Sequential(
                          (0): AdaptiveAvgPool2d(output_size=(2, 2))
                        )
                        (2): Sequential(
                          (0): AdaptiveAvgPool2d(output_size=(3, 3))
                        )
                        (3): Sequential(
                          (0): AdaptiveAvgPool2d(output_size=(6, 6))
                        )
                      )
                      (relu): ReLU()
                    )
                  )
                )
                (mlp): Mlp(
                  (fc1): Linear(in_features=176, out_features=352, bias=True)
                  (dwconv): DWConv(
                    (dwconv): Conv2d(352, 352, kernel_size=(3, 3), stride=(1, 1), padding=(1, 1), groups=352)
                  )
                  (act): GELU()
                  (fc2): Linear(in_features=352, out_features=176, bias=True)
                  (drop): Dropout(p=0.0, inplace=False)
                )
                (drop_path): Identity()
                (norm1): LayerNorm((176,), eps=1e-06, elementwise_affine=True)
                (norm2): LayerNorm((176,), eps=1e-06, elementwise_affine=True)
              )
              (2): MHCABlock(
                (cpe): ConvPosEnc(
                  (proj): Conv2d(176, 176, kernel_size=(3, 3), stride=(1, 1), padding=(1, 1), groups=176)
                )
                (crpe): FilterModule(
                  (conv_list): ModuleList(
                    (0): Conv2d(44, 44, kernel_size=(3, 3), stride=(1, 1), padding=(1, 1), groups=44)
                    (1): Conv2d(66, 66, kernel_size=(5, 5), stride=(1, 1), padding=(2, 2), groups=66)
                    (2): Conv2d(66, 66, kernel_size=(7, 7), stride=(1, 1), padding=(3, 3), groups=66)
                  )
                  (LP): LowPassModule(
                    (stages): ModuleList(
                      (0): Sequential(
                        (0): AdaptiveAvgPool2d(output_size=(1, 1))
                      )
                      (1): Sequential(
                        (0): AdaptiveAvgPool2d(output_size=(2, 2))
                      )
                      (2): Sequential(
                        (0): AdaptiveAvgPool2d(output_size=(3, 3))
                      )
                      (3): Sequential(
                        (0): AdaptiveAvgPool2d(output_size=(6, 6))
                      )
                    )
                    (relu): ReLU()
                  )
                )
                (factoratt_crpe): Frequency_FilterModule(
                  (qkv): Linear(in_features=176, out_features=528, bias=True)
                  (attn_drop): Dropout(p=0.0, inplace=False)
                  (proj): Linear(in_features=176, out_features=176, bias=True)
                  (proj_drop): Dropout(p=0.0, inplace=False)
                  (crpe): FilterModule(
                    (conv_list): ModuleList(
                      (0): Conv2d(44, 44, kernel_size=(3, 3), stride=(1, 1), padding=(1, 1), groups=44)
                      (1): Conv2d(66, 66, kernel_size=(5, 5), stride=(1, 1), padding=(2, 2), groups=66)
                      (2): Conv2d(66, 66, kernel_size=(7, 7), stride=(1, 1), padding=(3, 3), groups=66)
                    )
                    (LP): LowPassModule(
                      (stages): ModuleList(
                        (0): Sequential(
                          (0): AdaptiveAvgPool2d(output_size=(1, 1))
                        )
                        (1): Sequential(
                          (0): AdaptiveAvgPool2d(output_size=(2, 2))
                        )
                        (2): Sequential(
                          (0): AdaptiveAvgPool2d(output_size=(3, 3))
                        )
                        (3): Sequential(
                          (0): AdaptiveAvgPool2d(output_size=(6, 6))
                        )
                      )
                      (relu): ReLU()
                    )
                  )
                )
                (mlp): Mlp(
                  (fc1): Linear(in_features=176, out_features=352, bias=True)
                  (dwconv): DWConv(
                    (dwconv): Conv2d(352, 352, kernel_size=(3, 3), stride=(1, 1), padding=(1, 1), groups=352)
                  )
                  (act): GELU()
                  (fc2): Linear(in_features=352, out_features=176, bias=True)
                  (drop): Dropout(p=0.0, inplace=False)
                )
                (drop_path): Identity()
                (norm1): LayerNorm((176,), eps=1e-06, elementwise_affine=True)
                (norm2): LayerNorm((176,), eps=1e-06, elementwise_affine=True)
              )
              (3): MHCABlock(
                (cpe): ConvPosEnc(
                  (proj): Conv2d(176, 176, kernel_size=(3, 3), stride=(1, 1), padding=(1, 1), groups=176)
                )
                (crpe): FilterModule(
                  (conv_list): ModuleList(
                    (0): Conv2d(44, 44, kernel_size=(3, 3), stride=(1, 1), padding=(1, 1), groups=44)
                    (1): Conv2d(66, 66, kernel_size=(5, 5), stride=(1, 1), padding=(2, 2), groups=66)
                    (2): Conv2d(66, 66, kernel_size=(7, 7), stride=(1, 1), padding=(3, 3), groups=66)
                  )
                  (LP): LowPassModule(
                    (stages): ModuleList(
                      (0): Sequential(
                        (0): AdaptiveAvgPool2d(output_size=(1, 1))
                      )
                      (1): Sequential(
                        (0): AdaptiveAvgPool2d(output_size=(2, 2))
                      )
                      (2): Sequential(
                        (0): AdaptiveAvgPool2d(output_size=(3, 3))
                      )
                      (3): Sequential(
                        (0): AdaptiveAvgPool2d(output_size=(6, 6))
                      )
                    )
                    (relu): ReLU()
                  )
                )
                (factoratt_crpe): Frequency_FilterModule(
                  (qkv): Linear(in_features=176, out_features=528, bias=True)
                  (attn_drop): Dropout(p=0.0, inplace=False)
                  (proj): Linear(in_features=176, out_features=176, bias=True)
                  (proj_drop): Dropout(p=0.0, inplace=False)
                  (crpe): FilterModule(
                    (conv_list): ModuleList(
                      (0): Conv2d(44, 44, kernel_size=(3, 3), stride=(1, 1), padding=(1, 1), groups=44)
                      (1): Conv2d(66, 66, kernel_size=(5, 5), stride=(1, 1), padding=(2, 2), groups=66)
                      (2): Conv2d(66, 66, kernel_size=(7, 7), stride=(1, 1), padding=(3, 3), groups=66)
                    )
                    (LP): LowPassModule(
                      (stages): ModuleList(
                        (0): Sequential(
                          (0): AdaptiveAvgPool2d(output_size=(1, 1))
                        )
                        (1): Sequential(
                          (0): AdaptiveAvgPool2d(output_size=(2, 2))
                        )
                        (2): Sequential(
                          (0): AdaptiveAvgPool2d(output_size=(3, 3))
                        )
                        (3): Sequential(
                          (0): AdaptiveAvgPool2d(output_size=(6, 6))
                        )
                      )
                      (relu): ReLU()
                    )
                  )
                )
                (mlp): Mlp(
                  (fc1): Linear(in_features=176, out_features=352, bias=True)
                  (dwconv): DWConv(
                    (dwconv): Conv2d(352, 352, kernel_size=(3, 3), stride=(1, 1), padding=(1, 1), groups=352)
                  )
                  (act): GELU()
                  (fc2): Linear(in_features=352, out_features=176, bias=True)
                  (drop): Dropout(p=0.0, inplace=False)
                )
                (drop_path): Identity()
                (norm1): LayerNorm((176,), eps=1e-06, elementwise_affine=True)
                (norm2): LayerNorm((176,), eps=1e-06, elementwise_affine=True)
              )
              (4): MHCABlock(
                (cpe): ConvPosEnc(
                  (proj): Conv2d(176, 176, kernel_size=(3, 3), stride=(1, 1), padding=(1, 1), groups=176)
                )
                (crpe): FilterModule(
                  (conv_list): ModuleList(
                    (0): Conv2d(44, 44, kernel_size=(3, 3), stride=(1, 1), padding=(1, 1), groups=44)
                    (1): Conv2d(66, 66, kernel_size=(5, 5), stride=(1, 1), padding=(2, 2), groups=66)
                    (2): Conv2d(66, 66, kernel_size=(7, 7), stride=(1, 1), padding=(3, 3), groups=66)
                  )
                  (LP): LowPassModule(
                    (stages): ModuleList(
                      (0): Sequential(
                        (0): AdaptiveAvgPool2d(output_size=(1, 1))
                      )
                      (1): Sequential(
                        (0): AdaptiveAvgPool2d(output_size=(2, 2))
                      )
                      (2): Sequential(
                        (0): AdaptiveAvgPool2d(output_size=(3, 3))
                      )
                      (3): Sequential(
                        (0): AdaptiveAvgPool2d(output_size=(6, 6))
                      )
                    )
                    (relu): ReLU()
                  )
                )
                (factoratt_crpe): Frequency_FilterModule(
                  (qkv): Linear(in_features=176, out_features=528, bias=True)
                  (attn_drop): Dropout(p=0.0, inplace=False)
                  (proj): Linear(in_features=176, out_features=176, bias=True)
                  (proj_drop): Dropout(p=0.0, inplace=False)
                  (crpe): FilterModule(
                    (conv_list): ModuleList(
                      (0): Conv2d(44, 44, kernel_size=(3, 3), stride=(1, 1), padding=(1, 1), groups=44)
                      (1): Conv2d(66, 66, kernel_size=(5, 5), stride=(1, 1), padding=(2, 2), groups=66)
                      (2): Conv2d(66, 66, kernel_size=(7, 7), stride=(1, 1), padding=(3, 3), groups=66)
                    )
                    (LP): LowPassModule(
                      (stages): ModuleList(
                        (0): Sequential(
                          (0): AdaptiveAvgPool2d(output_size=(1, 1))
                        )
                        (1): Sequential(
                          (0): AdaptiveAvgPool2d(output_size=(2, 2))
                        )
                        (2): Sequential(
                          (0): AdaptiveAvgPool2d(output_size=(3, 3))
                        )
                        (3): Sequential(
                          (0): AdaptiveAvgPool2d(output_size=(6, 6))
                        )
                      )
                      (relu): ReLU()
                    )
                  )
                )
                (mlp): Mlp(
                  (fc1): Linear(in_features=176, out_features=352, bias=True)
                  (dwconv): DWConv(
                    (dwconv): Conv2d(352, 352, kernel_size=(3, 3), stride=(1, 1), padding=(1, 1), groups=352)
                  )
                  (act): GELU()
                  (fc2): Linear(in_features=352, out_features=176, bias=True)
                  (drop): Dropout(p=0.0, inplace=False)
                )
                (drop_path): Identity()
                (norm1): LayerNorm((176,), eps=1e-06, elementwise_affine=True)
                (norm2): LayerNorm((176,), eps=1e-06, elementwise_affine=True)
              )
              (5): MHCABlock(
                (cpe): ConvPosEnc(
                  (proj): Conv2d(176, 176, kernel_size=(3, 3), stride=(1, 1), padding=(1, 1), groups=176)
                )
                (crpe): FilterModule(
                  (conv_list): ModuleList(
                    (0): Conv2d(44, 44, kernel_size=(3, 3), stride=(1, 1), padding=(1, 1), groups=44)
                    (1): Conv2d(66, 66, kernel_size=(5, 5), stride=(1, 1), padding=(2, 2), groups=66)
                    (2): Conv2d(66, 66, kernel_size=(7, 7), stride=(1, 1), padding=(3, 3), groups=66)
                  )
                  (LP): LowPassModule(
                    (stages): ModuleList(
                      (0): Sequential(
                        (0): AdaptiveAvgPool2d(output_size=(1, 1))
                      )
                      (1): Sequential(
                        (0): AdaptiveAvgPool2d(output_size=(2, 2))
                      )
                      (2): Sequential(
                        (0): AdaptiveAvgPool2d(output_size=(3, 3))
                      )
                      (3): Sequential(
                        (0): AdaptiveAvgPool2d(output_size=(6, 6))
                      )
                    )
                    (relu): ReLU()
                  )
                )
                (factoratt_crpe): Frequency_FilterModule(
                  (qkv): Linear(in_features=176, out_features=528, bias=True)
                  (attn_drop): Dropout(p=0.0, inplace=False)
                  (proj): Linear(in_features=176, out_features=176, bias=True)
                  (proj_drop): Dropout(p=0.0, inplace=False)
                  (crpe): FilterModule(
                    (conv_list): ModuleList(
                      (0): Conv2d(44, 44, kernel_size=(3, 3), stride=(1, 1), padding=(1, 1), groups=44)
                      (1): Conv2d(66, 66, kernel_size=(5, 5), stride=(1, 1), padding=(2, 2), groups=66)
                      (2): Conv2d(66, 66, kernel_size=(7, 7), stride=(1, 1), padding=(3, 3), groups=66)
                    )
                    (LP): LowPassModule(
                      (stages): ModuleList(
                        (0): Sequential(
                          (0): AdaptiveAvgPool2d(output_size=(1, 1))
                        )
                        (1): Sequential(
                          (0): AdaptiveAvgPool2d(output_size=(2, 2))
                        )
                        (2): Sequential(
                          (0): AdaptiveAvgPool2d(output_size=(3, 3))
                        )
                        (3): Sequential(
                          (0): AdaptiveAvgPool2d(output_size=(6, 6))
                        )
                      )
                      (relu): ReLU()
                    )
                  )
                )
                (mlp): Mlp(
                  (fc1): Linear(in_features=176, out_features=352, bias=True)
                  (dwconv): DWConv(
                    (dwconv): Conv2d(352, 352, kernel_size=(3, 3), stride=(1, 1), padding=(1, 1), groups=352)
                  )
                  (act): GELU()
                  (fc2): Linear(in_features=352, out_features=176, bias=True)
                  (drop): Dropout(p=0.0, inplace=False)
                )
                (drop_path): Identity()
                (norm1): LayerNorm((176,), eps=1e-06, elementwise_affine=True)
                (norm2): LayerNorm((176,), eps=1e-06, elementwise_affine=True)
              )
            )
          )
        )
      )
      (3): MHCA_stage(
        (Restore): Restore(
          (conv1): Conv2d_BN(
            (conv): Conv2d(216, 108, kernel_size=(1, 1), stride=(1, 1), bias=False)
            (bn): BatchNorm2d(108, eps=1e-05, momentum=0.1, affine=True, track_running_stats=True)
            (act_layer): Hardswish()
          )
          (dwconv): Conv2d(108, 108, kernel_size=(3, 3), stride=(1, 1), padding=(1, 1), groups=108, bias=False)
          (norm): BatchNorm2d(108, eps=1e-05, momentum=0.1, affine=True, track_running_stats=True)
          (act): Hardswish()
          (conv2): Conv2d_BN(
            (conv): Conv2d(108, 216, kernel_size=(1, 1), stride=(1, 1), bias=False)
            (bn): BatchNorm2d(216, eps=1e-05, momentum=0.1, affine=True, track_running_stats=True)
            (act_layer): Identity()
          )
        )
        (aggregate): Conv2d_BN(
          (conv): Conv2d(216, 216, kernel_size=(1, 1), stride=(1, 1), bias=False)
          (bn): BatchNorm2d(216, eps=1e-05, momentum=0.1, affine=True, track_running_stats=True)
          (act_layer): Hardswish()
        )
        (mhca_blks): ModuleList(
          (0): MHCAEncoder(
            (cpe): ConvPosEnc(
              (proj): Conv2d(216, 216, kernel_size=(3, 3), stride=(1, 1), padding=(1, 1), groups=216)
            )
            (crpe): FilterModule(
              (conv_list): ModuleList(
                (0): Conv2d(54, 54, kernel_size=(3, 3), stride=(1, 1), padding=(1, 1), groups=54)
                (1): Conv2d(81, 81, kernel_size=(5, 5), stride=(1, 1), padding=(2, 2), groups=81)
                (2): Conv2d(81, 81, kernel_size=(7, 7), stride=(1, 1), padding=(3, 3), groups=81)
              )
              (LP): LowPassModule(
                (stages): ModuleList(
                  (0): Sequential(
                    (0): AdaptiveAvgPool2d(output_size=(1, 1))
                  )
                  (1): Sequential(
                    (0): AdaptiveAvgPool2d(output_size=(2, 2))
                  )
                  (2): Sequential(
                    (0): AdaptiveAvgPool2d(output_size=(3, 3))
                  )
                  (3): Sequential(
                    (0): AdaptiveAvgPool2d(output_size=(6, 6))
                  )
                )
                (relu): ReLU()
              )
            )
            (MHCA_layers): ModuleList(
              (0): MHCABlock(
                (cpe): ConvPosEnc(
                  (proj): Conv2d(216, 216, kernel_size=(3, 3), stride=(1, 1), padding=(1, 1), groups=216)
                )
                (crpe): FilterModule(
                  (conv_list): ModuleList(
                    (0): Conv2d(54, 54, kernel_size=(3, 3), stride=(1, 1), padding=(1, 1), groups=54)
                    (1): Conv2d(81, 81, kernel_size=(5, 5), stride=(1, 1), padding=(2, 2), groups=81)
                    (2): Conv2d(81, 81, kernel_size=(7, 7), stride=(1, 1), padding=(3, 3), groups=81)
                  )
                  (LP): LowPassModule(
                    (stages): ModuleList(
                      (0): Sequential(
                        (0): AdaptiveAvgPool2d(output_size=(1, 1))
                      )
                      (1): Sequential(
                        (0): AdaptiveAvgPool2d(output_size=(2, 2))
                      )
                      (2): Sequential(
                        (0): AdaptiveAvgPool2d(output_size=(3, 3))
                      )
                      (3): Sequential(
                        (0): AdaptiveAvgPool2d(output_size=(6, 6))
                      )
                    )
                    (relu): ReLU()
                  )
                )
                (factoratt_crpe): Frequency_FilterModule(
                  (qkv): Linear(in_features=216, out_features=648, bias=True)
                  (attn_drop): Dropout(p=0.0, inplace=False)
                  (proj): Linear(in_features=216, out_features=216, bias=True)
                  (proj_drop): Dropout(p=0.0, inplace=False)
                  (crpe): FilterModule(
                    (conv_list): ModuleList(
                      (0): Conv2d(54, 54, kernel_size=(3, 3), stride=(1, 1), padding=(1, 1), groups=54)
                      (1): Conv2d(81, 81, kernel_size=(5, 5), stride=(1, 1), padding=(2, 2), groups=81)
                      (2): Conv2d(81, 81, kernel_size=(7, 7), stride=(1, 1), padding=(3, 3), groups=81)
                    )
                    (LP): LowPassModule(
                      (stages): ModuleList(
                        (0): Sequential(
                          (0): AdaptiveAvgPool2d(output_size=(1, 1))
                        )
                        (1): Sequential(
                          (0): AdaptiveAvgPool2d(output_size=(2, 2))
                        )
                        (2): Sequential(
                          (0): AdaptiveAvgPool2d(output_size=(3, 3))
                        )
                        (3): Sequential(
                          (0): AdaptiveAvgPool2d(output_size=(6, 6))
                        )
                      )
                      (relu): ReLU()
                    )
                  )
                )
                (mlp): Mlp(
                  (fc1): Linear(in_features=216, out_features=432, bias=True)
                  (dwconv): DWConv(
                    (dwconv): Conv2d(432, 432, kernel_size=(3, 3), stride=(1, 1), padding=(1, 1), groups=432)
                  )
                  (act): GELU()
                  (fc2): Linear(in_features=432, out_features=216, bias=True)
                  (drop): Dropout(p=0.0, inplace=False)
                )
                (drop_path): Identity()
                (norm1): LayerNorm((216,), eps=1e-06, elementwise_affine=True)
                (norm2): LayerNorm((216,), eps=1e-06, elementwise_affine=True)
              )
              (1): MHCABlock(
                (cpe): ConvPosEnc(
                  (proj): Conv2d(216, 216, kernel_size=(3, 3), stride=(1, 1), padding=(1, 1), groups=216)
                )
                (crpe): FilterModule(
                  (conv_list): ModuleList(
                    (0): Conv2d(54, 54, kernel_size=(3, 3), stride=(1, 1), padding=(1, 1), groups=54)
                    (1): Conv2d(81, 81, kernel_size=(5, 5), stride=(1, 1), padding=(2, 2), groups=81)
                    (2): Conv2d(81, 81, kernel_size=(7, 7), stride=(1, 1), padding=(3, 3), groups=81)
                  )
                  (LP): LowPassModule(
                    (stages): ModuleList(
                      (0): Sequential(
                        (0): AdaptiveAvgPool2d(output_size=(1, 1))
                      )
                      (1): Sequential(
                        (0): AdaptiveAvgPool2d(output_size=(2, 2))
                      )
                      (2): Sequential(
                        (0): AdaptiveAvgPool2d(output_size=(3, 3))
                      )
                      (3): Sequential(
                        (0): AdaptiveAvgPool2d(output_size=(6, 6))
                      )
                    )
                    (relu): ReLU()
                  )
                )
                (factoratt_crpe): Frequency_FilterModule(
                  (qkv): Linear(in_features=216, out_features=648, bias=True)
                  (attn_drop): Dropout(p=0.0, inplace=False)
                  (proj): Linear(in_features=216, out_features=216, bias=True)
                  (proj_drop): Dropout(p=0.0, inplace=False)
                  (crpe): FilterModule(
                    (conv_list): ModuleList(
                      (0): Conv2d(54, 54, kernel_size=(3, 3), stride=(1, 1), padding=(1, 1), groups=54)
                      (1): Conv2d(81, 81, kernel_size=(5, 5), stride=(1, 1), padding=(2, 2), groups=81)
                      (2): Conv2d(81, 81, kernel_size=(7, 7), stride=(1, 1), padding=(3, 3), groups=81)
                    )
                    (LP): LowPassModule(
                      (stages): ModuleList(
                        (0): Sequential(
                          (0): AdaptiveAvgPool2d(output_size=(1, 1))
                        )
                        (1): Sequential(
                          (0): AdaptiveAvgPool2d(output_size=(2, 2))
                        )
                        (2): Sequential(
                          (0): AdaptiveAvgPool2d(output_size=(3, 3))
                        )
                        (3): Sequential(
                          (0): AdaptiveAvgPool2d(output_size=(6, 6))
                        )
                      )
                      (relu): ReLU()
                    )
                  )
                )
                (mlp): Mlp(
                  (fc1): Linear(in_features=216, out_features=432, bias=True)
                  (dwconv): DWConv(
                    (dwconv): Conv2d(432, 432, kernel_size=(3, 3), stride=(1, 1), padding=(1, 1), groups=432)
                  )
                  (act): GELU()
                  (fc2): Linear(in_features=432, out_features=216, bias=True)
                  (drop): Dropout(p=0.0, inplace=False)
                )
                (drop_path): Identity()
                (norm1): LayerNorm((216,), eps=1e-06, elementwise_affine=True)
                (norm2): LayerNorm((216,), eps=1e-06, elementwise_affine=True)
              )
            )
          )
        )
      )
    )
  )
  init_cfg=E:/5.23/2.13-2.20/2.15/AFFormer-main/pretained_weight/AFFormer_base_ImageNet1k.pth
  (decode_head): CLS(
    input_transform=multiple_select, ignore_index=255, align_corners=False
    (loss_decode): CrossEntropyLoss()
    (conv_seg): Conv2d(256, 150, kernel_size=(1, 1), stride=(1, 1))
    (dropout): Dropout2d(p=0.1, inplace=False)
    (squeeze): ConvModule(
      (conv): Conv2d(216, 256, kernel_size=(1, 1), stride=(1, 1), bias=False)
      (gn): GroupNorm(32, 256, eps=1e-05, affine=True)
      (activate): ReLU(inplace=True)
    )
    (align): ConvModule(
      (conv): Conv2d(256, 256, kernel_size=(1, 1), stride=(1, 1), bias=False)
      (gn): GroupNorm(32, 256, eps=1e-05, affine=True)
      (activate): ReLU(inplace=True)
    )
  )
  init_cfg={'type': 'Normal', 'std': 0.01, 'override': {'name': 'conv_seg'}}
)
2023-02-16 23:07:15,913 - mmseg - INFO - Loaded 960 images
2023-02-16 23:07:17,249 - mmseg - INFO - Loaded 88 images
2023-02-16 23:07:17,249 - mmseg - INFO - Start running, host: 赵家琪@LAPTOP-1ADKIJ7N, work_dir: E:\5.23\2.13-2.20\2.15\AFFormer-main\tools\work_dirs\AFFormer_base_ade20k
…
